output/clssnn.pth (torch, 141711 bytes, 6 tensors)

fc1.weight f4 [64, 512]
0.012009646 0.008858793 -0.03508282 -0.022229517 -0.019914556 -0.028845675 -0.011235905 0.014891657
-0.011049834 0.0061305896 -0.024893241 0.04160881 0.011170589 -0.0051770275 0.011280297 0.019371478
0.0027435035 -0.0005601043 0.00071076106 0.018594287 -0.02824282 -0.0076387767 -0.00064484513 0.001768532
-0.0126919765 0.022330979 0.018902238 0.0039545293 0.012911051 -0.014967774 -0.036635038 -0.02729099
0.039692696 0.015611437 -0.024925588 -0.035510942 -0.020938192 -0.030917732 -0.04038691 0.01423258
-0.0064683356 -0.006910789 -0.021076815 0.04022395 0.04176167 -0.0029882453 0.021450486 0.017126711
-0.035714407 -0.019078981 0.02586694 0.009476122 0.026162319 -0.0123247625 -0.04335429 0.004563909
0.041263387 -0.0007983277 -0.03497434 0.009954527 -0.030407237 0.042643152 -0.029066656 0.022480335
0.012697662 -0.0021660302 -0.03760342 0.012328985 0.026450327 -0.0062576146 0.032265633 -0.03610114
0.030645814 0.004988301 -0.008837714 0.0028209672 0.026675237 -0.043121725 0.019694643 -0.04254691
-0.03010752 0.014701169 0.025391718 -0.0011674971 0.014946137 0.0070359013 -0.018244775 -0.042025194
0.03066174 0.011874683 -0.0046378993 0.017949546 -0.016551757 0.039513055 -0.037185106 0.022081962
-0.04334735 -0.03494206 0.038840163 0.018189466 0.038095582 0.027704071 0.030080851 -0.042958207
-0.0072420686 0.031991452 -0.0029105768 0.006215467 0.023996366 0.001789256 0.0066590826 -0.0047668247
0.03477131 -0.022485752 -0.04004196 -0.023867082 0.008595255 0.030847076 -0.0069529 0.0383764
0.040144335 0.0032635771 0.011967799 -0.0384823 -0.029648926 0.035425704 0.033821415 0.017702777
-0.012314331 0.024953231 0.03620683 -0.011075415 -0.026970522 -0.008988393 0.03501861 -0.04245953
-0.008445882 0.010908833 0.03327819 -0.03209771 0.027222106 0.039767068 0.035029434 -0.02542276
-0.017236564 -0.013975202 0.019903103 0.0060137953 0.01870659 -0.032809976 -0.03757358 -0.008507739
0.010385221 0.039810732 0.038840864 -0.028098864 0.042453106 -0.00815704 -0.019171972 -0.03465234
-0.022224661 0.005359894 0.013317027 -0.011653514 -0.014898493 0.036573984 0.035765644 0.043449275
-0.004395761 -0.006894315 -0.020755313 0.032856505 0.01312506 0.025087237 0.00041371258 0.004097911
-0.031305436 -0.0008134734 -0.04266915 0.027599556 -0.027295953 -0.02568022 -0.03527174 -0.038776185
0.00450643 -0.029661993 -0.010477245 0.007338264 -0.0010259954 -0.0114417 -0.022349942 0.00013958296
-0.015745541 0.01870835 0.026701659 -0.007483874 -0.0330917 0.0134775 0.014052892 0.00971199
-0.02779858 -0.040848844 -0.04080883 -0.028811231 0.023733687 -0.01655376 0.032881945 0.014913099
0.043624487 -0.015695091 -0.037265874 0.03310154 0.043243546 0.038259186 0.04148957 -0.031013431
-0.010234226 -0.038462345 -0.043797016 0.025851583 -0.016235558 0.0121122 -0.014172352 -0.019984208
0.033436675 -0.010222529 0.009420219 0.034795586 0.009478845 0.03499092 -0.015592147 -0.040859506
-0.02066517 -0.029944768 0.017987581 0.021053556 0.027053475 0.0009744917 0.02437773 -0.009365803
0.02381949 -0.018141955 0.031845927 0.03809772 0.019605927 -0.0029756164 -0.036136184 -0.016898239
0.015512254 0.027956612 -0.028801305 -0.040126055 0.009049472 -0.0197269 0.0026425999 -0.029718386
00000000: 1bc4 443c 7924 113c 01b3 0fbd ad1a b6bc
00000010: da23 a3bc c44d ecbc cd16 38bc 23fc 733c
00000020: 5d0a 35bc 1de3 c83b e9ec cbbc 006e 2a3d
00000030: d904 373c 0ea4 a9bb ffd0 383c efb0 9e3c
00000040: 5acc 333b f7d3 12ba 5e52 3a3a 0c53 983c
00000050: 7d5d e7bc b44e fabb d30a 29ba 16ce e73a
00000060: 02f2 4fbc 75ef b63c ded8 9a3c ff94 813b
00000070: df88 533c 653b 75bc 9f0e 16bd 5b91 dfbc
00000080: cf94 223d 1dc7 7f3c bf30 ccbc ec73 11bd
00000090: 9286 abbc 2f47 fdbc bf6c 25bd c42f 693c
000000a0: 55f4 d3bb e673 e2bb 49a9 acbc dec1 243d
000000b0: 490e 2b3d 70d6 43bb eeb8 af3c 514d 8c3c
000000c0: 4549 12bd 864b 9cbc e8e6 d33c bd41 1b3c
000000d0: 5c52 d63c cded 49bc 4594 31bd d88c 953b
000000e0: cc03 293d dd46 51ba 4141 0fbd 5018 233c
000000f0: 9918 f9bc 96aa 2e3d 321d eebc ae28 b83c
00000100: db09 503c f5f3 0dbb 0b06 1abd 83ff 493c
00000110: 5bae d83c ad0c cdbb f828 043d cade 13bd
00000120: ee0c fb3c e774 a33b 0fcc 10bc fadf 383b
00000130: 0786 da3c 68a0 30bd a956 a13c ab45 2ebd
00000140: 0ca4 f6bc 2cdd 703c 4b02 d03c b406 99ba
00000150: a4e0 743c 6b8d e63b 1176 95bc 9c22 2cbd
00000160: 542e fb3c 088e 423c 85f9 97bb ed0a 933c
00000170: 8d97 87bc 71d8 213d 694f 18bd 3be5 b43c
00000180: fe8c 31bd 681f 0fbd dd16 1f3d 1302 953c
00000190: 1d0a 1c3d a6f3 e23c 1e6c f63c f2f4 2fbd
000001a0: e04e edbb 7809 033d 60bf 3ebb 1eab cb3b
000001b0: 0794 c43c 7885 ea3a 6f34 da3b 0633 9cbb
000001c0: 5c6c 0e3d 0a34 b8bc 0a03 24bd e684 c3bc
000001d0: 1dd3 0c3c 02b3 fc3c 27d5 e3bb 9230 1d3d
000001e0: 636e 243d bde1 553b 9614 443c 9e9f 1dbd
000001f0: 4ee2 f2bc 8b1a 113d 5388 0a3d 6a05 913c
00000200: 0cc2 49bc b86a cc3c 9d4d 143d a875 35bc
00000210: 49f1 dcbc 0d44 13bc ad6f 0f3d 0bea 2dbd
00000220: 9960 0abc f6ba 323c b64e 083d e378 03bd
00000230: e500 df3c cbe2 223d 067b 0f3d 6443 d0bc
00000240: b233 8dbc 3ff8 64bc d50b a33c 5f0f c53b
00000250: 903e 993c c163 06bd c1e6 19bd 0b64 0bbc
00000260: c626 2a3c 9410 233d 9917 1f3d 972f e6bc
00000270: 4fe3 2d3d 1ba5 05bc 8a0e 9dbc 9def 0dbd
00000280: 7e10 b6bc 0da2 af3b a92f 5a3c 61ee 3ebc
00000290: cf18 74bc 9ace 153d ff7e 123d def7 313d
000002a0: 510a 90bb b5e9 e1bb 0c07 aabc 8b94 063d
000002b0: 7e0a 573c c083 cd3c 90e7 d839 c547 863b
000002c0: 213a 00bd 473f 55ba d9c5 2ebd 7718 e23c
000002d0: c39b dfbc 535f d2bc 1a79 10bd c7d3 1ebd
000002e0: adaa 933b b5fd f2bc c0a8 2bbc d275 f03b
000002f0: b17a 86ba f875 3bbc 3a17 b7bc 045d 1239
00000300: cbfc 80bc 4142 993c 70bd da3c 493b f5bb
00000310: 2a8b 07bd bbd0 5c3c 1a3e 663c 0a1f 1f3c
00000320: d9b9 e3bc 1e51 27bd 2927 27bd 8805 ecbc
00000330: 266d c23c c09b 87bc 38af 063d 1256 743c
00000340: 97af 323d fe92 80bc 1aa4 18bd 7b95 073d
00000350: 2520 313d aab5 1c3d f8f0 293d e10f febc
00000360: 74ad 27bc b18a 1dbd 8064 33bd b3c6 d33c
00000370: 6f00 85bc 4072 463c 2733 68bc ecb5 a3bc
00000380: e5f4 083d 657c 27bc 4357 1a3c d185 0e3d
00000390: 284d 1b3c a452 0f3d 3476 7fbc 4c5c 27bd
000003a0: 014a a9bc bb4e f5bc b15a 933c 8278 ac3c
000003b0: 409f dd3c 0875 7f3a ceb3 c73c 0673 19bc
000003c0: 1721 c33c 709e 94bc e070 023d 5b0c 1c3d
000003d0: 9c9c a03c 8f02 43bb 8903 14bd 2d6e 8abc
000003e0: 1c27 7e3c 4405 e53c b7f0 ebbc 385b 24bd
000003f0: 3d44 143c 4f9a a1bc 782f 2d3b f973 f3bc

fc1.bias f4 [64]
-0.012536562 0.1648623 -0.0074728825 -0.01714548 -0.073901854 0.065049894 -0.026075613 -0.040772885
-0.0049862587 -0.021331253 -0.017400417 0.03597624 -0.037936583 -0.08075702 -0.03247565 -0.043562546
-0.009757204 -0.03194735 0.05588867 -0.025421267 -0.053498 -0.025309164 -0.014205615 0.056697533
-0.020370925 -0.0209686 0.025377525 -0.014163249 0.038654305 -0.029557526 0.015835376 0.017729517
-0.040673964 0.06584145 -0.05788508 -0.019201126 0.053581346 0.068924055 -0.02179085 -0.023465913
0.11713986 -0.033966415 -0.012051491 -0.034983333 0.032112844 0.008924004 -0.031921424 0.053804412
-0.006718177 -0.018260062 0.054890107 -0.039497726 0.046747167 0.007357458 0.03134306 0.009033977
0.03875797 0.12410483 -0.023720946 -0.014637088 0.05321739 0.030991852 -0.06318681 -0.006511456
00000000: 2766 4dbc aad1 283e 15df f4bb ad74 8cbc
00000010: db59 97bd e138 853d 869c d5bc 7801 27bd
00000020: c563 a3bb e1be aebc 528b 8ebc d25b 133d
00000030: 6463 1bbd f063 a5bd 3005 05bd a46e 32bd
00000040: aedc 1fbc 39db 02bd 85eb 643d 4340 d0bc
00000050: b820 5bbd 2a55 cfbc abbe 68bc ac3b 683d
00000060: ede0 a6bc 57c6 abbc 87e4 cf3c f90c 68bc
00000070: fa53 1e3d a022 f2bc 31b9 813c 7e3d 913c
00000080: be99 26bd e2d7 863d e818 6dbd ae4b 9dbc
00000090: 1d78 5b3d 0e28 8d3d ba82 b2bc 963b c0bc
000000a0: 06e7 ef3d 5e20 0bbd 9e73 45bc af4a 0fbd
000000b0: c288 033d fc35 123c 0ac0 02bd 0462 5c3d
000000c0: 2724 dcbb 2096 95bc 73d4 603d 5ec8 21bd
000000d0: f579 3f3d d516 f13b 9561 003d 3f03 143c
000000e0: adc0 1e3d ac2a fe3d 6e52 c2bc 66d0 6fbc
000000f0: 7afa 593d a0e2 fd3c 1668 81bd 0d5e d5bb

fc2.weight f4 [32, 64]
-0.028870363 0.1283978 0.09210196 -0.11666683 -7.885374e-05 -0.2135996 0.009680374 -0.08837799
0.17425963 -0.06320356 0.13700876 0.14694735 -0.09843991 -0.014011424 -0.038308334 0.08193932
0.05836364 -0.09857238 -0.24089734 0.11981967 -0.04355722 -0.018937608 0.1790179 0.14300284
-0.08975515 -0.026979685 0.14492022 0.12429903 0.15927255 0.023668526 0.21347441 0.15220901
-0.0917156 0.16954505 -0.07104436 -0.11580368 0.16024694 -0.117795974 -0.090037525 -0.0814899
0.040867757 -0.049294934 0.26405874 -0.111534186 0.20645046 -0.11461573 0.08518631 0.15653029
-0.12273081 0.025155395 0.16785155 0.08098266 0.08178784 0.20614852 0.001854645 -0.09512565
0.1588742 0.023668531 -0.045551457 0.0030315728 0.13049476 0.14771695 -0.039065383 0.19869936
0.110813655 0.10072163 -0.05060595 0.091737226 -0.09263141 -0.16295968 -0.08925682 -0.008650226
0.13545851 -0.086553834 0.18482307 0.23954825 0.028974384 0.07801936 -0.00096654077 0.09902098
-0.07519773 -0.12394927 -0.027476583 -0.016049862 0.0308439 0.070890374 0.23414123 0.24927995
0.0644399 0.119450405 0.023861142 0.012813439 0.23233666 -0.0538067 0.24941361 0.2016354
-0.10818092 -0.0254744 0.07555064 -0.086678766 0.08182244 -0.12874703 -0.09498901 -0.039464522
0.115760125 -0.03718192 0.1420686 0.10594211 0.08264639 0.066773884 0.10228759 0.1807245
-0.031871762 -0.056304466 0.28549966 -0.106690444 0.15653414 0.20329545 -0.16002423 -0.06489726
0.20445228 0.05972948 -0.040715497 -0.026354995 0.23921205 0.17177762 -0.061221614 0.27266422
0.06367123 -0.09202955 -0.023689847 0.03658077 -0.11866282 -0.1341712 0.08348593 0.115587816
-0.06148567 0.06109216 0.05619861 0.0833111 -0.001356711 -0.12352323 0.035894603 -0.115954235
0.043482117 -0.03524305 -0.07446443 0.021368805 0.08274433 0.0049937717 0.04986417 0.05860351
0.08051344 -0.055787254 -0.037602242 -0.092539206 -0.12135549 0.05686731 0.016852584 0.049047653
-0.02515063 -0.07351759 0.0038937817 -0.08764001 0.0301162 -0.10829187 0.051986452 0.08093685
0.0034392113 -0.0066181836 -0.07194076 0.052591305 -0.13259012 -0.109530464 -0.07664896 -0.0025984407
-0.0791962 -0.113549925 -0.06878435 -0.093132 -0.14897636 0.053646673 -0.048489667 -0.09381485
-0.057638504 0.06104863 -0.005837812 -0.031514555 -0.1369398 0.012920632 0.041438777 -0.14551158
0.0992165 0.14492175 -0.047843542 -0.118823536 0.014577101 0.24884953 0.112912074 0.099458076
-0.15495417 -0.078069255 -0.2253954 -0.1137327 -0.0041389302 -0.04637357 0.05928735 -0.10778867
0.023125995 0.07038056 0.29283297 -0.1096893 -0.110254034 0.0409434 -0.292178 -0.19585656
-0.052147176 -0.04731961 -0.1287041 0.027399078 -0.09706348 -0.0017815402 -0.20503147 -0.28395534
0.014848913 0.09325713 0.009240505 0.016316902 -0.15861297 0.3569247 0.07727827 -0.062721044
0.13491638 0.06953583 -0.10180611 -0.006007102 -0.07024728 0.054340117 -0.01894478 -0.060591698
-0.078927726 0.021635564 -0.22797933 -0.09234045 -0.12557298 -0.2705992 0.14210616 -0.09704478
-0.09071022 0.18541571 -0.07974309 0.06591187 -0.103736505 0.042425275 -0.07961773 -0.18684597
00000000: 8a81 ecbc b67a 033e f49f bc3d 05ef eebd
00000010: 485e a5b8 dbb9 5abe 6e9a 1e3c 85ff b4bd
00000020: 1e71 323e de70 81bd 064c 0c3e 5e79 163e
00000030: dd9a c9bd 2c90 65bc 33e9 1cbd cdcf a73d
00000040: b60e 6f3d 51e0 c9bd cbad 76be 0464 f53d
00000050: 0e69 32bd 0b23 9bbc 7850 373e 566f 123e
00000060: 8cd1 b7bd 8004 ddbc f765 143e 7d90 fe3d
00000070: 5818 233e 7fe4 c13c 0999 5a3e aedc 1b3e
00000080: 63d5 bbbd 389d 2d3e b57f 91bd 7b2a edbd
00000090: c617 243e 043f f1bd 9865 b8bd 2de4 a6bd
000000a0: f364 273d 7ce9 49bd b532 873e 096c e4bd
000000b0: c067 533e a7bb eabd 2976 ae3d 7a49 203e
000000c0: 4a5a fbbd b012 ce3c 47e1 2b3e 3dda a53d
000000d0: 6280 a73d 9918 533e 8f17 f33a 3dd1 c2bd
000000e0: ebaf 223e 82e4 c13c 2a94 3abd 5aad 463b
000000f0: 6ba0 053e 1d43 173e 0603 20bd d877 4b3e
00000100: 45f2 e23d 2447 ce3d 2f48 4fbd bae0 bb3d
00000110: 89b5 bdbd e7de 26be 48cc b6bd adb9 0dbc
00000120: a3b5 0a3e 2343 b1bd 4242 3d3e 234c 753e
00000130: b05b ed3c 9dc8 9f3d 745f 7dba 83cb ca3d
00000140: 4401 9abd 1dd9 fdbd 9216 e1bc 007b 83bc
00000150: 59ac fc3c f92e 913d b8c2 6f3e 3e43 7f3e
00000160: 11f9 833d 6aa2 f43d 7178 c33c 75ef 513c
00000170: a9e9 6d3e 6a64 5cbd 4866 7f3e 8379 4e3e
00000180: f58d ddbd b0af d0bc 4bba 9a3d a384 b1bd
00000190: 8692 a73d 43d6 03be 9989 c2bd 8da5 21bd
000001a0: a513 ed3d 124c 18bd 6e7a 113e 2df8 d83d
000001b0: 8342 a93d bfc0 883d 287c d13d d80f 393e
000001c0: f78b 02bd 839f 66bd 032d 923e 8580 dabd
000001d0: 7c4a 203e af2c 503e 64dd 23be dbe8 84bd
000001e0: f05b 513e e6a6 743d 4bc5 26bd 6ee6 d7bc
000001f0: 01f4 743e 79e6 2f3e 84c3 7abd a59a 8b3e
00000200: 1066 823d fd79 bcbd 3611 c2bc b8d5 153d
00000210: 7e05 f3bd 2d64 09be acfa aa3d 4eb9 ec3d
00000220: 66d8 7bbd c63b 7a3d 8430 663d 039f aa3d
00000230: abd3 b1ba bff9 fcbd 3806 133d 6a79 edbd
00000240: 4e1a 323d 045b 10bd cf80 98bd a20d af3c
00000250: dc75 a93d cba2 a33b 5f3e 4c3d 3c0a 703d
00000260: 3be4 a43d 2d81 64bd cf04 1abd 3285 bdbd
00000270: 3a89 f8bd b2ed 683d 6e0e 8a3c 31e6 483d
00000280: b208 cebc 6490 96bd d12e 7f3b 9b7c b3bd
00000290: 40b6 f63c 21c8 ddbd bfef 543d 38c2 a53d
000002a0: 6464 613b 59dd d8bb ad55 93bd fb69 573d
000002b0: b4c5 07be 8251 e0bd 21fa 9cbd 9a4a 2abb
000002c0: 9e31 a2bd dd8c e8bd cfde 8cbd fdbb bebd
000002d0: 428d 18be 9dbc 5b3d 1a9d 46bd 0022 c0bd
000002e0: 5a16 6cbd 210e 7a3d 1e4b bfbb 6815 01bd
000002f0: f239 0cbe 0fb1 533c b5bb 293d fd00 15be
00000300: 0532 cb3d 5e66 143e 97f7 43bd c159 f3bd
00000310: cbd4 6e3c 69d2 7e3e 723e e73d adb0 cb3d
00000320: 4eac 1ebe c6e2 9fbd 0dce 66be b1ec e8bd
00000330: dd9f 87bb 36f2 3dbd 4bd7 723d 4ec0 dcbd
00000340: ba72 bd3c af23 903d 34ee 953e c9a4 e0bd
00000350: decc e1bd 44b4 273d 5b98 95be 9f8e 48be
00000360: 4798 55bd 35d2 41bd 02cb 03be 0874 e03c
00000370: 38c9 c6bd 9282 e9ba c5f3 51be 9862 91be
00000380: db48 733c 98fd be3d 7d65 173c 06ab 853c
00000390: 706b 22be d6be b63e 1244 9e3d e473 80bd
000003a0: 8527 0a3e cd68 8e3d b97f d0bd 39d7 c4bb
000003b0: cedd 8fbd be93 5e3d 1532 9bbc 002f 78bd
000003c0: dca4 a1bd 113d b13c 6a73 69be fd1c bdbd
000003d0: 3496 00be fa8b 8abe 4784 113e 6abf c6bd
000003e0: 48c6 b9bd 9edd 3d3e 5850 a3bd cdfc 863d
000003f0: ce73 d4bd 20c6 2d3d 9f0e a3bd 8d54 3fbe

fc2.bias f4 [32]
0.11312026 -0.046994187 -0.1466943 0.22929056 -0.036885425 0.054000784 0.11539999 0.093254976
0.06762628 -0.10505274 -0.046749562 -0.06495911 -0.07604321 -0.16122016 0.030062892 0.066775076
0.19712092 -0.115675226 -0.0068067797 0.068265654 0.12693037 -0.10728981 -0.0051042554 -0.016011164
-0.05027497 -0.06276468 -0.044140976 -0.046608485 0.030221917 0.12146105 -0.10323915 0.045023765
00000000: 98ab e73d fa7c 40bd 0837 16be 25cb 6a3e
00000010: 2c15 17bd ed2f 5d3d d456 ec3d 77fc be3d
00000020: a67f 8a3d e425 d7bd 787c 3fbd 4809 85bd
00000030: 8bbc 9bbd e616 25be 7446 f63c 5fc1 883d
00000040: 11da 493e 22e7 ecbd 680b dfbb ddce 8b3d
00000050: 09fa 013e c3ba dbbd 9941 a7bb d829 83bc
00000060: 20ed 4dbd c58a 80bd 2bcd 34bd 8ae8 3ebd
00000070: f493 f73c 92c0 f83d 0c6f d3bd d76a 383d

fc3.weight f4 [2, 32]
0.26449916 0.32485574 0.0026627756 -0.38691142 0.23864798 -0.02987475 -0.1134048 0.28371754
0.003696224 0.062164873 -0.047485843 0.18537432 0.14413561 -0.015183623 -0.047072202 0.010841265
-0.30153093 0.055636816 -0.03636445 0.305515 0.3136204 0.04243425 0.0423757 -0.14195573
-0.0002133313 -0.004718287 0.12902918 -0.021231527 -0.08184811 0.26885632 0.0386081 0.17711465
-0.12598592 -0.28485096 -0.05541222 0.24488369 -0.25715655 0.2238695 0.28777614 -0.1363419
0.038584884 0.05048142 -0.040922865 -0.26742253 0.093716376 0.06681628 0.19358942 0.046169337
0.31879672 0.09538632 0.058903858 -0.16162199 -0.36610478 -0.061035722 -0.29163912 -0.09368006
-0.010222804 0.012243272 -0.21022359 0.07644763 -0.09550314 -0.30099785 -0.054267738 -0.29605162
00000000: 6f6c 873e 7e53 a63e f681 2e3b 4119 c6be
00000010: 2360 743e e4bb f4bc c740 e8bd 6d43 913e
00000020: 593c 723b 98a0 7e3d 8480 42bd c4d2 3d3e
00000030: 4998 133e bbc4 78bc c8ce 40bd 909f 313c
00000040: 4362 9abe 6ee3 633d e4f2 14bd 766c 9c3e
00000050: da92 a03e 89cf 2d3d 2492 2d3d d85c 11be
00000060: afb1 5fb9 dc9b 9abb 3a20 043e bded adbc
00000070: fb9f a7bd 89a7 893e 8723 1e3d 8b5d 353e
00000080: 7402 01be fcd7 91be edf7 62bd cac2 7a3e
00000090: 06aa 83be 0c3e 653e 6557 933e 369d 0bbe
000000a0: 2f0b 1e3d 9bc5 4e3d bc9e 27bd 9beb 88be
000000b0: 5fee bf3d f9d6 883d 4e3c 463e 0f1c 3d3d
000000c0: 5339 a33e e759 c33d 2c45 713d 3c80 25be
000000d0: 1672 bbbe 9800 7abd b951 95be 55db bfbd
000000e0: 8c7d 27bc 0198 483c da44 57be 9390 9c3d
000000f0: 2697 c3bd 641c 9abe d947 5ebd 1494 97be

fc3.bias f4 [2]
0.015253906 0.22493903
00000000: 85eb 793c 6b56 663e
